…
2020-08-03 20:45:25.307422: W tensorflow/core/framework/cpu_allocator_impl.cc:81] Allocation of 838860800 exceeds 10% of free system memory.
2020-08-03 20:45:26.405388: W tensorflow/core/framework/cpu_allocator_impl.cc:81] Allocation of 838860800 exceeds 10% of free system memory.
2020-08-03 20:45:26.637001: W tensorflow/core/framework/cpu_allocator_impl.cc:81] Allocation of 838860800 exceeds 10% of free system memory.
Preparing...
Loading dataset...
Creating the model...
Model: "sequential"
_________________________________________________________________
Layer (type)                 Output Shape              Param #   
=================================================================
conv2d (Conv2D)              (None, 510, 510, 64)      640       
_________________________________________________________________
conv2d_1 (Conv2D)            (None, 508, 508, 64)      36928     
_________________________________________________________________
max_pooling2d (MaxPooling2D) (None, 254, 254, 64)      0         
_________________________________________________________________
conv2d_2 (Conv2D)            (None, 252, 252, 128)     73856     
_________________________________________________________________
conv2d_3 (Conv2D)            (None, 250, 250, 128)     147584    
_________________________________________________________________
max_pooling2d_1 (MaxPooling2 (None, 125, 125, 128)     0         
_________________________________________________________________
conv2d_4 (Conv2D)            (None, 123, 123, 256)     295168    
_________________________________________________________________
conv2d_5 (Conv2D)            (None, 121, 121, 256)     590080    
_________________________________________________________________
conv2d_6 (Conv2D)            (None, 119, 119, 256)     590080    
_________________________________________________________________
max_pooling2d_2 (MaxPooling2 (None, 59, 59, 256)       0         
_________________________________________________________________
conv2d_7 (Conv2D)            (None, 57, 57, 512)       1180160   
_________________________________________________________________
conv2d_8 (Conv2D)            (None, 55, 55, 512)       2359808   
_________________________________________________________________
conv2d_9 (Conv2D)            (None, 53, 53, 512)       2359808   
_________________________________________________________________
max_pooling2d_3 (MaxPooling2 (None, 26, 26, 512)       0         
_________________________________________________________________
conv2d_10 (Conv2D)           (None, 24, 24, 512)       2359808   
_________________________________________________________________
conv2d_11 (Conv2D)           (None, 22, 22, 512)       2359808   
_________________________________________________________________
conv2d_12 (Conv2D)           (None, 20, 20, 512)       2359808   
_________________________________________________________________
max_pooling2d_4 (MaxPooling2 (None, 10, 10, 512)       0         
_________________________________________________________________
flatten (Flatten)            (None, 51200)             0         
_________________________________________________________________
dense (Dense)                (None, 4096)              209719296 
_________________________________________________________________
dropout (Dropout)            (None, 4096)              0         
_________________________________________________________________
dense_1 (Dense)              (None, 4096)              16781312  
_________________________________________________________________
dropout_1 (Dropout)          (None, 4096)              0         
_________________________________________________________________
dense_2 (Dense)              (None, 4096)              16781312  
_________________________________________________________________
dropout_2 (Dropout)          (None, 4096)              0         
_________________________________________________________________
dense_3 (Dense)              (None, 1)                 4097      
=================================================================
Total params: 257,999,553
Trainable params: 257,999,553
Non-trainable params: 0
_________________________________________________________________
None
Training the model...
Epoch 1/100

Epoch 00001: val_loss improved from inf to 182.74034, saving model to /cs/scratch/as521/models/checkpoints/vgg16-model.h5
810/810 - 246s - loss: 188.3703 - accuracy: 0.4938 - mse: 0.4735 - precision: 0.4679 - recall: 0.0901 - val_loss: 182.7403 - val_accuracy: 0.5000 - val_mse: 0.5000 - val_precision: 0.0000e+00 - val_recall: 0.0000e+00 - lr: 1.0000e-06
…
2020-08-05 16:12:40.403345: W tensorflow/core/framework/cpu_allocator_impl.cc:81] Allocation of 1073741824 exceeds 10% of free system memory.
2020-08-05 16:12:41.644005: W tensorflow/core/framework/cpu_allocator_impl.cc:81] Allocation of 1073741824 exceeds 10% of free system memory.
Preparing...
Loading dataset...
4893.004670274749 -3230.518254521652
4863.728119230238 -3309.0571501744225
1.0 0.0
1.0 0.0
Creating the model...
Model: "sequential"
_________________________________________________________________
Layer (type)                 Output Shape              Param #   
=================================================================
conv2d (Conv2D)              (None, 502, 502, 96)      11712     
_________________________________________________________________
batch_normalization (BatchNo (None, 502, 502, 96)      384       
_________________________________________________________________
activation (Activation)      (None, 502, 502, 96)      0         
_________________________________________________________________
max_pooling2d (MaxPooling2D) (None, 167, 167, 96)      0         
_________________________________________________________________
conv2d_1 (Conv2D)            (None, 163, 163, 384)     921984    
_________________________________________________________________
activation_1 (Activation)    (None, 163, 163, 384)     0         
_________________________________________________________________
max_pooling2d_1 (MaxPooling2 (None, 54, 54, 384)       0         
_________________________________________________________________
conv2d_2 (Conv2D)            (None, 52, 52, 384)       1327488   
_________________________________________________________________
conv2d_3 (Conv2D)            (None, 50, 50, 256)       884992    
_________________________________________________________________
conv2d_4 (Conv2D)            (None, 48, 48, 256)       590080    
_________________________________________________________________
activation_2 (Activation)    (None, 48, 48, 256)       0         
_________________________________________________________________
max_pooling2d_2 (MaxPooling2 (None, 16, 16, 256)       0         
_________________________________________________________________
flatten (Flatten)            (None, 65536)             0         
_________________________________________________________________
dense (Dense)                (None, 4096)              268439552 
_________________________________________________________________
dropout (Dropout)            (None, 4096)              0         
_________________________________________________________________
dense_1 (Dense)              (None, 4096)              16781312  
_________________________________________________________________
dropout_1 (Dropout)          (None, 4096)              0         
_________________________________________________________________
dense_2 (Dense)              (None, 1)                 4097      
=================================================================
Total params: 288,961,601
Trainable params: 288,961,409
Non-trainable params: 192
_________________________________________________________________
None
Training the model...
Epoch 1/100

Epoch 00001: val_loss improved from inf to 49.04927, saving model to /cs/scratch/as521/models/checkpoints/baseline-model.h5
810/810 - 226s - loss: 76.1958 - accuracy: 0.4994 - mse: 0.4144 - precision: 0.0000e+00 - recall: 0.0000e+00 - val_loss: 49.0493 - val_accuracy: 0.5000 - val_mse: 0.3441 - val_precision: 0.0000e+00 - val_recall: 0.0000e+00 - lr: 1.0000e-05
…
